…
l.2 %&gt;% compile( loss = &quot;categorical_crossentropy&quot;, optimizer = &quot;adam&quot;, metrics = c(&quot;accuracy&quot;) ) # Melakukan tahapan pelatihan model history &lt;- model.2 %&gt;% fit( train_X, train_y, shuffle = T, epochs = 100, batch_size = 32, validation_split = 0.2, verbose = F # tidak menampilkan teks ouput pada setiap epoch ) print(model.2) ## Model: &quot;sequential_1&quot; ## ____________________________________________________________________ ## Layer (type) Output Shape Param # ## ==================================================================== ## dense_4 (Dense) (None, 128) 4096 ## dropout_1 (Dropout) (None, 128) 0 ## dense_3 (Dense) (None, 64) 8256 ## dropout (Dropout) (None, 64) 0 ## dense_2 (Dense) (None, 7) 455 ## ==================================================================== ## Total params: 12807 (50.03 KB) ## Trainable params: 12807 (50.03 KB) ## Non-trainable params: 0 (0.00 Byte) ## ____________________________________________________________________ plot(history) # Mengevaluasi model menggunakan data uji scores &lt;- model.2 %&gt;% evaluate(test_X, test_y) ## 14/14 - 0s - loss: 0.1789 - accu
…
l_accuracy did not improve from 0.96190 ## 27/27 - 1s - loss: 0.0433 - accuracy: 0.9846 - val_loss: 0.1733 - val_accuracy: 0.9381 - 808ms/epoch - 30ms/step ## Epoch 200/200 ## ## Epoch 200: val_accuracy did not improve from 0.96190 ## 27/27 - 1s - loss: 0.0406 - accuracy: 0.9852 - val_loss: 0.1839 - val_accuracy: 0.9357 - 793ms/epoch - 29ms/step summary(model.3) ## Model: &quot;sequential_2&quot; ## ____________________________________________________________________ ## Layer (type) Output Shape Param # ## ==================================================================== ## dense_7 (Dense) (None, 120) 3840 ## dropout_3 (Dropout) (None, 120) 0 ## dense_6 (Dense) (None, 100) 12100 ## dropout_2 (Dropout) (None, 100) 0 ## dense_5 (Dense) (None, 7) 707 ## ==================================================================== ## Total params: 16647 (65.03 KB) ## Trainable params: 16647 (65.03 KB) ## Non-trainable params: 0 (0.00 Byte) ## ____________________________________________________________________ plot(history) # evaluasi model scores &lt;- model.3 %&gt;% evaluate(test_X, test_y) ## 14/14 - 0s - loss: 0.1839 - accuracy: 0.9357 - 71ms/epoch
…
0.97946 ## 24/24 - 1s - loss: 0.0060 - accuracy: 0.9993 - val_loss: 0.0731 - val_accuracy: 0.9731 - 790ms/epoch - 33ms/step ## Epoch 138/200 ## ## Epoch 138: val_accuracy did not improve from 0.97946 ## 24/24 - 1s - loss: 0.0080 - accuracy: 0.9973 - val_loss: 0.0742 - val_accuracy: 0.9747 - 758ms/epoch - 32ms/step ## Epoch 138: early stopping summary(model.bin) ## Model: &quot;sequential_3&quot; ## ____________________________________________________________________ ## Layer (type) Output Shape Param # ## ==================================================================== ## dense_10 (Dense) (None, 120) 3840 ## dropout_5 (Dropout) (None, 120) 0 ## dense_9 (Dense) (None, 120) 14520 ## dropout_4 (Dropout) (None, 120) 0 ## dense_8 (Dense) (None, 1) 121 ## ==================================================================== ## Total params: 18481 (72.19 KB) ## Trainable params: 18481 (72.19 KB) ## Non-trainable params: 0 (0.00 Byte) ## ____________________________________________________________________ plot(history) # evaluasi model scores &lt;- model.bin %&gt;% evaluate(test_X, test_y) ## 20/20 - 0s - loss: 0.0742 - accuracy: 0.9747 - 88ms/epo
…
poch 87: val_loss did not improve from 3.50630 ## ## Epoch 88: val_loss did not improve from 3.50630 ## ## Epoch 89: val_loss did not improve from 3.50630 ## ## Epoch 90: val_loss did not improve from 3.50630 ## ## Epoch 91: val_loss did not improve from 3.50630 ## ## Epoch 92: val_loss did not improve from 3.50630 ## Epoch 92: early stopping summary(model.reg) ## Model: &quot;sequential_4&quot; ## ____________________________________________________________________ ## Layer (type) Output Shape Param # ## ==================================================================== ## dense_13 (Dense) (None, 64) 704 ## dropout_7 (Dropout) (None, 64) 0 ## dense_12 (Dense) (None, 64) 4160 ## dropout_6 (Dropout) (None, 64) 0 ## dense_11 (Dense) (None, 1) 65 ## ==================================================================== ## Total params: 4929 (19.25 KB) ## Trainable params: 4929 (19.25 KB) ## Non-trainable params: 0 (0.00 Byte) ## ____________________________________________________________________ plot(history) # Mengevaluasi model menggunakan data uji scores &lt;- model.reg %&gt;% evaluate(test_X, test_y) ## 27/27 - 0s - loss: 4.9077 - mean
…
